LSTM/best_lstm.pt (torch, 973396 bytes, 10 tensors)

lstm.weight_ih_l0 f4 [512, 85]
0.07992025 0.13824454 -0.007561195 0.13715716 -0.009248535 0.07525315 -0.026051681 0.088156536
0.08301355 -0.023833431 0.11635219 0.045877177 0.055959072 0.037717514 0.105364285 0.118262686
0.034726102 0.0859022 -0.0035606178 0.15999234 -0.08405828 0.06892883 0.009090336 0.07527264
-0.114761144 -0.057386354 -0.019731862 -0.022230519 -0.022018623 -0.05896321 0.08658143 -0.09451466
0.061134044 -0.0057488 -0.045265682 0.041718975 0.014909693 0.072101496 0.012461595 -0.033333544
0.020113656 -0.024388209 0.042117786 0.07586519 0.049556073 -0.044823464 0.04508522 0.002132905
0.02845818 -0.078016765 -0.11622598 0.06620607 0.009123345 0.17025492 0.09778933 0.13650943
0.090350024 0.07445119 0.11363482 0.050609265 0.023724968 0.0038884503 0.055658024 0.044282753
-0.03789269 -0.013219087 0.27610794 -0.064705715 -0.061088063 -0.058669027 0.3181294 -0.029819926
0.13253038 -0.08075881 0.11222017 -0.061337594 -0.2593487 -0.07764946 0.12022457 0.013823269
-0.0045695924 -0.19528598 0.13850917 -0.09102118 0.123749524 -0.009590719 0.0708535 -0.055561077
-0.022483911 0.03839123 0.037624612 0.0021128685 0.077919826 0.0680298 -0.046948973 -0.015816232
0.112233445 -0.0289131 -0.016608413 -0.06571295 0.017062802 0.014693321 0.022392018 -0.07570876
0.04217113 -0.057392612 -0.021065522 -0.020799886 0.039425626 -0.08415262 -0.028430548 0.03313275
0.014935424 -0.09568286 -0.08458305 -0.071400374 0.009383017 -0.13198206 -0.05079371 -0.010624888
0.029658126 -0.0053518475 -0.0107718455 -0.05560175 -0.068306416 -0.05676565 -0.03886892 -0.075349405
0.06809664 -0.020542145 0.065317415 0.01770785 -0.09077535 0.04581187 -0.045164235 -0.056310993
-0.17919438 -0.17606287 -0.07578457 -0.10836956 -0.06849481 -0.16339391 -0.018420052 -0.1588881
-0.10517472 -0.083326474 -0.022108436 0.0060156155 0.033430807 -0.17263697 -0.011647146 -0.061985135
-0.009166228 -0.13357118 0.039222557 -0.07880895 0.012020086 -0.014485926 -0.0040283795 -0.004854279
0.11309108 -0.023508616 -0.029323181 -0.09949557 0.015797157 -0.04903 -0.064366646 0.07030399
0.0031212268 -0.069329076 -0.026369892 0.045971222 0.06545971 0.026471814 -0.030208284 0.016886719
-0.05487493 0.07291645 0.09224444 -0.045525253 0.036628976 0.0819164 0.028995212 -0.012631639
0.04447022 0.12511411 0.0020166228 -0.0048817 -0.053794056 0.065384 -0.083613865 -0.023559418
0.05266065 0.16386782 -0.004912346 -0.10769737 -0.042148855 0.007383925 -0.0043004244 0.02328831
-0.14917383 -0.050304886 0.046555705 0.009477068 -0.041118797 -0.09667599 -0.089118734 -0.099816374
-0.04302358 0.020686777 0.04904481 0.033836786 -0.0813412 -0.061949864 -0.022110755 0.07768694
0.0040928884 -0.03322643 0.020361269 -0.050354753 -0.081108294 0.079646 -0.020415545 0.0005710774
-0.061677095 0.07581085 0.081093356 0.07489103 -0.05332503 -0.06649201 -0.09568991 0.16393103
0.016833797 0.07203664 -0.07588894 0.11169591 0.053318486 -0.10566797 -0.1103523 -0.012962729
0.09124102 -0.110887766 -0.019713473 -0.004283161 0.11191268 -0.10879578 -0.1857737 0.03343673
0.03796923 0.003748778 0.009516938 -0.13250753 0.057017956 -0.13004099 0.028396592 -0.10745592
00000000: 3aad a33d fa8f 0d3e e7c3 f7bb ed72 0c3e
00000010: 2b87 17bc 531e 9a3d 566a d5bc 6a8b b43d
00000020: 0203 aa3d 543e c3bc 0f4a ee3d b5e9 3b3d
00000030: 5735 653d ae7d 1a3d 3bc9 d73d b533 f23d
00000040: f53c 0e3d 7eed af3d 4159 69bb 08d5 233e
00000050: bf26 acbd 8f2a 8d3d a2ef 143c 8b28 9a3d
00000060: e407 ebbd f40d 6bbd b7a4 a1bc c71c b6bc
00000070: 6660 b4bc 6883 71bd 9b51 b13d e790 c1bd
00000080: b167 7a3d 6e60 bcbb 8268 39bd 84e1 2a3d
00000090: c947 743c f3a9 933d b82b 4c3c c188 08bd
000000a0: 65c5 a43c c8c9 c7bc b383 2c3d 355f 9b3d
000000b0: 4ffb 4a3d cf98 37bd 48ab 383d 35c8 0b3b
000000c0: 2121 e93c 41c7 9fbd e307 eebd 0c97 873d
000000d0: 157a 153c 4e57 2e3e c645 c83d 21c9 0b3e
000000e0: 6f09 b93d de79 983d 5fb9 e83d a94b 4f3d
000000f0: dd5a c23c 5fd5 7e3b abf9 633d d561 353d
00000100: 5e35 1bbd df94 58bc 055e 8d3e 6e84 84bd
00000110: 7a37 7abd ef4e 70bd dbe1 a23e eb48 f4bc
00000120: 0bb6 073e e064 a5bd b0d3 e53d 213d 7bbd
00000130: 5ac9 84be ae06 9fbd 4d38 f63d fe7a 623c
00000140: 85bc 95bb 0cf9 47be 59d5 0d3e 5069 babd
00000150: 6470 fd3d 6422 1dbc a41b 913d 0394 63bd
00000160: 2e30 b8bc 1f40 1d3d 441c 1a3d 0d78 0a3b
00000170: 6e94 9f3d 3553 8b3d 914d 40bd 0b91 81bc
00000180: a6da e53d 2adb ecbc 5e0e 88bc 8394 86bd
00000190: 4ac7 8b3c 41bc 703c 776f b73c 320d 9bbd
000001a0: a3bb 2c3d 8414 6bbd 9a91 acbc 8664 aabc
000001b0: c47c 213d 3558 acbd 2ee7 e8bc 35b6 073d
000001c0: b5b3 743c 60f5 c3bd e139 adbd 5c3a 92bd
000001d0: 3abb 193c 4e26 07be 110d 50bd 0314 2ebc
000001e0: 99f5 f23c 8d5e afbb 657c 30bc a9be 63bd
000001f0: 3ce4 8bbd 1983 68bd 0435 1fbd ca50 9abd
00000200: 4076 8b3d 0048 a8bc 23c5 853d 0e10 913c
00000210: 6de8 b9bd 3aa5 3b3d 22fe 38bd 5ba6 66bd
00000220: bb7e 37be d349 34be f134 9bbd dcf0 ddbd
00000230: 0247 8cbd bc50 27be a6e5 96bc 90b3 22be
00000240: d865 d7bd 12a7 aabd c01c b5bc a41e c53b
00000250: beee 083d bfc7 30be acd3 3ebc 20e4 7dbd
00000260: f22d 16bc e2c6 08be d5a7 203d 9666 a1bd
00000270: e5ef 443c 6156 6dbc 7f00 84bb a510 9fbb
00000280: 4c9c e73d 2495 c0bc 2b37 f0bc 55c4 cbbd
00000290: 0a69 813c aed3 48bd a9d2 83bd 8afb 8f3d
000002a0: 7f8d 4c3b 67fc 8dbd ac05 d8bc 524c 3c3d
000002b0: be0f 863d 6bdb d83c 5d77 f7bc 0456 8a3c
000002c0: 89c4 60bd 3855 953d a7ea bc3d b078 3abd
000002d0: 4408 163d c9c3 a73d 5e87 ed3c eff4 4ebc
000002e0: 6826 363d ea1d 003e 5129 043b abf6 9fbb
000002f0: 2857 5cbd 0ce8 853d bf3d abbd aeff c0bc
00000300: b2b2 573d f7cc 273e bff7 a0bb 7090 dcbd
00000310: 47a4 2cbd daf4 f13b 93ea 8cbb 20c7 be3c
00000320: 06c1 18be 7f0c 4ebd 32b1 3e3d b445 1b3c
00000330: 2f6c 28bd 10fe c5bd e283 b6bd 876c ccbd
00000340: 7e39 30bd 5177 a93c 36e3 483d 7198 0a3d
00000350: 3796 a6bd 24bf 7dbd 9d21 b5bc 551a 9f3d
00000360: a31d 863b 7018 08bd adcc a63c c940 4ebd
00000370: 1b1c a6bd 711d a33d 803e a7bc 5bb4 153a
00000380: 1fa1 7cbd b842 9b3d 4614 a63d 7860 993d
00000390: 596b 5abd f72c 88bd 12f9 c3bd 89dd 273e
000003a0: 08e7 893c f287 933d a96b 9bbd d3c0 e43d
000003b0: 7c64 5a3d 7368 d8bd 6300 e2bd a061 54bc
000003c0: 92dc ba3d 2019 e3bd 267e a1bc c259 8cbb
000003d0: 7a32 e53d 52d0 debd 763b 3ebe f4f4 083d
000003e0: a085 1b3d 0fae 753b eeec 1b3c 0eb0 07be
000003f0: a98b 693d 7729 05be f89f e83c d911 dcbd

lstm.weight_hh_l0 f4 [512, 128]
0.029902954 -0.06052736 -0.014327649 -0.004417696 0.05704662 -0.10106407 0.07682023 -0.013668084
0.030159857 -0.07943061 0.029828526 0.060267385 -0.02706322 -0.05343928 0.07343974 -0.07208057
-0.015212696 -0.026013479 0.025834678 -0.039327435 0.0046234108 -0.0078072613 -0.05401755 0.0037723929
-0.038374484 -0.021001093 0.08367595 -0.06589183 -0.03260794 -0.024126442 -0.046708886 -0.031220667
0.08221563 0.037311092 0.07728423 0.05170853 0.050366625 0.013192419 0.06030241 -0.09382353
0.102223836 -0.0057419925 -0.1271481 0.07568245 -0.05276754 -0.005138515 -0.07884874 -0.06692287
0.10678914 0.021471687 0.06167681 -0.066368386 -0.055718157 -0.03625379 0.10826301 0.03705908
-0.16083892 0.032230265 -0.10479397 0.021357795 0.0032683024 -0.023466527 -0.06730373 -0.033389542
-0.07277383 -0.04015567 -0.083276704 -0.06626819 -0.06523755 -0.01415163 0.0540373 0.009386033
-0.07739034 0.039123885 -0.07297795 0.0062531075 -0.020437503 -0.002954367 0.09837164 0.025218813
-0.043817878 -0.053208392 -0.074316025 0.05019339 -0.038332917 0.078053206 -0.08803105 -0.0782395
-0.012708095 0.019106412 0.01899927 -0.15317625 0.07285961 0.07292497 -0.051716685 -0.07452799
0.060235925 -0.010892528 -0.043898247 0.04612821 0.053967807 0.06659067 -0.04380794 -0.07109495
-0.0070528784 -0.09456227 -0.123776585 0.017117383 0.016337566 0.027498467 0.023972679 -0.017019762
0.03527543 0.11561583 -0.07940224 0.06853089 0.09768214 0.08500556 0.072953045 -0.009654971
0.040376242 -0.1027034 0.1265949 0.06781121 0.0075438996 -0.08047555 -0.10938771 0.012725607
0.0676923 0.004823486 -0.011763318 0.09520801 0.11137742 -0.048582062 -0.031543456 0.03021623
0.05015513 -0.052612316 0.11762595 0.051194172 -0.009397154 -0.043105904 0.09532066 -0.08901155
0.10011006 -0.04127526 0.066558495 0.058077477 -0.060594853 -0.06964677 0.079055235 0.051392782
-0.021102432 -0.0785675 -0.110225156 -0.120797604 0.02148695 0.036656827 -0.08450468 0.06788943
0.08090308 0.02555487 -0.048779868 -0.03923866 -0.04509894 -0.053861156 0.04685572 0.01616405
0.007994023 -0.043596987 0.049042176 0.01960106 0.01258113 0.015751652 0.06691119 0.035479788
-0.08089784 -0.02361445 0.0033197475 0.042505387 -0.025605584 -0.0067531755 -0.0022957355 -0.067866415
0.051315393 -0.058114987 -0.014725221 0.078166045 -0.029592277 0.05556606 -0.02299143 0.027891459
0.043568686 -0.033912674 0.057764616 -0.042558067 0.0024876003 -0.08089382 0.03688332 0.024525879
0.121810995 -0.032813624 -0.12313539 0.010030156 -0.15123214 -0.005299138 0.005736319 -0.025116464
-0.02773386 -0.06491121 0.04616688 0.040920794 -0.04550811 -0.036749512 0.011711199 -0.047018144
-0.043281484 0.020688301 0.04558738 -0.053347148 0.07394279 0.08457619 0.018068293 -0.04484091
0.103427775 0.041252524 -0.11422704 -0.047768123 0.07760904 0.04008999 0.06898243 -0.018668778
-0.013480881 -0.06508883 -0.03859096 0.092590146 -0.028791502 -0.09046223 -0.07051372 0.03323509
0.008709412 0.064734794 -0.052267715 0.055703558 -0.06920371 -0.07046096 -0.0013840621 -0.09867426
-0.03696795 0.012929791 0.062399022 0.06974979 0.037597347 0.041185398 -0.08305916 -0.046272192
00000000: 0af7 f43c 89eb 77bd 84be 6abc 52c2 90bb
00000010: b7a9 693d aefa cebd ed53 9d3d 19f0 5fbc
00000020: ce11 f73c 84ac a2bd f45a f43c efda 763d
00000030: b0b3 ddbc 25e3 5abd 9367 963d fa9e 93bd
00000040: ac3e 79bc 381a d5bc 3fa3 d33c ce15 21bd
00000050: fb7f 973b 0ed4 ffbb 8241 5dbd 403a 773b
00000060: 902e 1dbd 7c0a acbc 4c5e ab3d 4cf2 86bd
00000070: e78f 05bd d1a4 c5bc d151 3fbd 7cc2 ffbc
00000080: ab60 a83d 84d3 183d 3247 9e3d 53cc 533d
00000090: 3c4d 4e3d 0425 583c a9ff 763d 8d26 c0bd
000000a0: bb5a d13d 5327 bcbb 1d33 02be 66ff 9a3d
000000b0: c722 58bd fd60 a8bb 737b a1bd dc0e 89bd
000000c0: 44b4 da3d 64e5 af3c d3a0 7c3d 26ec 87bd
000000d0: b938 64bd db7e 14bd ffb8 dd3d 43cb 173d
000000e0: f5b2 24be e203 043d 399e d6bd 8bf6 ae3c
000000f0: 0431 563b e03c c0bc 8ad6 89bd 79c3 08bd
00000100: 720a 95bd 467a 24bd fa8c aabd 9eb7 87bd
00000110: 449b 85bd 3ddc 67bc 3756 5d3d e0c7 193c
00000120: d47e 9ebd 5e40 203d 7775 95bd dee6 cc3b
00000130: 8d6c a7bc 0e9e 41bb 1277 c93d af97 ce3c
00000140: 607a 33bd 0bf1 59bd 0033 98bd 9697 4d3d
00000150: fa02 1dbd 5cda 9f3d a049 b4bd 083c a0bd
00000160: 9d35 50bc 0d85 9c3c 5ba4 9b3c 3cda 1cbe
00000170: 6b37 953d b059 953d e0d4 53bd 21a2 98bd
00000180: f2b9 763d 9376 32bc a6ce 33bd eff0 3c3d
00000190: 590d 5d3d b060 883d f46f 33bd 3b9a 91bd
000001a0: d51b e7bb dda9 c1bd 947e fdbd c139 8c3c
000001b0: 5cd6 853c 7744 e13c 5a62 c43c 076d 8bbc
000001c0: f87c 103d fec7 ec3d a49d a2bd ec59 8c3d
000001d0: 930d c83d 6517 ae3d 6868 953d e22f 1ebc
000001e0: 8f61 253d 2956 d2bd 18a2 013e 9be0 8a3d
000001f0: d132 f73b 5dd0 a4bd aa06 e0bd 107f 503c
00000200: 43a2 8a3d 550e 9e3b efba 40bc 6bfc c23d
00000210: d819 e43d fcfd 46bd b633 01bd 0788 f73c
00000220: 776f 4d3d 0380 57bd e0e5 f03d fbb0 513d
00000230: 85f6 19bc d18f 30bd 7a37 c33d b04b b6bd
00000240: 8106 cd3d 3f10 29bd d24f 883d a6e2 6d3d
00000250: 4f32 78bd f7a2 8ebd b6e7 a13d 3d81 523d
00000260: 02df acbc ffe7 a0bd babd e1bd bc64 f7bd
00000270: 6605 b03c 7825 163d ca10 adbd 9d09 8b3d
00000280: 84b0 a53d 7258 d13c 66cd 47bd b8b8 20bd
00000290: abb9 38bd 849d 5cbd c9eb 3f3d 786a 843c
000002a0: 5df9 023c c192 32bd 73e0 483d 6792 a03c
000002b0: 1521 4e3c 9c09 813c bc08 893d 4153 113d
000002c0: c4ad a5bd 1773 c1bc 1f90 593b 211a 2e3d
000002d0: cdc2 d1bc be49 ddbb 0d74 16bb 8cfd 8abd
000002e0: 1730 523d fb09 6ebd 0e42 71bc 8515 a03d
000002f0: 816b f2bc 3d99 633d 8658 bcbc a17c e43c
00000300: 1475 323d 04e8 0abd 979a 6c3d 5e51 2ebd
00000310: 0207 233b a9ab a5bd f712 173d 7fea c83c
00000320: 0b78 f93d 9467 06bd 682e fcbd 8655 243c
00000330: 99dc 1abe 64a4 adbb bbf7 bb3b 0bc1 cdbc
00000340: 1f32 e3bc 2bf0 84bd 7b19 3d3d 909c 273d
00000350: b666 3abd a886 16bd 54e0 3f3c 1996 40bd
00000360: ed47 31bd 837a a93c d5b9 3a3d 8a82 5abd
00000370: 516f 973d 4836 ad3d f503 943c 1aab 37bd
00000380: f1d1 d33d 68f8 283d deef e9bd 82a8 43bd
00000390: 7df1 9e3d 6735 243d a946 8d3d 44ef 98bc
000003a0: eade 5cbc 4b4d 85bd 8e11 1ebd e79f bd3d
000003b0: 28dc ebbc 4344 b9bd 7f69 90bd 8521 083d
000003c0: ecb1 0e3c ad93 843d ac16 56bd 6a29 643d
000003d0: adba 8dbd d64d 90bd 6b69 b5ba bb15 cabd
000003e0: b56b 17bd 79d7 533c 1e96 7f3d fad8 8e3d
000003f0: adff 193d 05b2 283d ec1a aabd e987 3dbd

lstm.bias_ih_l0 f4 [512]
-0.046715196 -0.06877397 -0.018023547 0.027663417 -0.12125552 -0.013032373 0.057677742 -0.10191661
0.07295324 0.090518154 0.068420865 0.035757426 0.03546371 -0.04633235 -0.0959731 0.007240959
-0.05717401 -0.0916945 -0.040663622 -0.0124658095 -0.042222224 -0.057072416 -0.022620011 -0.0018179694
-0.040782467 0.011149145 -0.07497106 -0.06811559 0.051220004 0.03826713 0.0016185872 -0.041974556
-0.08767943 -0.077616565 0.030033639 0.04864182 0.03012898 -0.085459575 0.013066796 -0.039737333
0.07255191 0.009702267 0.034935605 0.05724125 -0.11344156 0.07306894 0.07227348 -0.064205
0.033149842 -0.06905658 0.012673087 0.048674885 -0.00850893 0.048647974 0.044585615 0.08960773
-0.053216163 0.060053244 -0.060256414 0.0040058815 0.07604408 -0.067873515 -0.007300203 0.030235339
-0.065148644 0.10073434 -0.091594964 0.034682274 0.014578722 0.03256234 -0.05737325 -0.08067464
-0.03990241 -0.0064464547 -0.006233504 0.1305849 -0.057048723 0.047666423 -0.0386556 0.027993452
0.015186262 -0.04105968 0.06133486 0.017405966 0.01876147 -0.04184926 0.016735425 0.011401856
0.02397202 -0.019508583 0.052178524 0.08288794 -0.078827366 0.012648542 -0.09880694 0.038248423
0.081876636 -0.08051159 0.015075325 -0.05115032 -0.016672933 -0.024776157 0.0062127784 -0.035845526
0.08149939 -0.06262901 -0.05943899 0.08295714 0.030095901 -0.025779787 -0.02121317 0.012929234
0.05993384 -0.059168994 0.02318129 -0.09456053 0.021758346 0.052782703 -0.084211595 0.040383223
-0.096201494 0.012366376 -0.04044269 0.056813836 0.076370105 -0.10395114 -0.048795555 0.034679223
0.03868369 -0.05883666 -0.065179095 -0.009785912 0.032992493 0.078992784 0.06726977 -0.05258664
-0.07572288 0.07702353 -0.010417584 0.0110801365 -0.041992072 0.049481396 0.08627093 -0.057381336
-0.015854971 -0.04780323 -0.07259467 -0.09336018 0.063595474 -0.0051002996 0.015376187 0.060426503
-0.012823158 0.076873764 -0.0063328855 0.06660454 -0.008741204 0.0031607565 0.012009655 -0.04601093
0.03504613 -0.03817774 -0.046015326 -0.030604705 0.070184015 -0.0977753 -0.024756713 -0.0024766128
0.073748045 0.096070684 -0.061781842 0.025290374 -0.06605049 0.016843937 -0.054198805 -0.008748446
-0.06435816 -0.047331907 -0.07117899 0.045930445 -0.04591275 0.08107283 0.011999566 0.011242604
-0.00947418 0.078739405 0.022063391 -0.058056396 0.016447043 -0.064202644 0.0113314185 0.031984154
0.0028667073 -0.050023593 0.011506397 0.018718045 0.07257711 -0.0960994 -0.041233554 -0.010992557
0.060578506 -0.08399298 0.01367562 -0.050505403 0.058708522 -0.089073025 -0.023867171 -0.0672504
-0.08519056 -0.039665148 -0.007419045 0.094089255 -0.065218106 -0.029468684 -0.053711656 0.056166533
0.078327805 0.039783202 0.02586114 0.070228375 0.029936455 0.055336185 0.057195887 -0.074010246
0.006715255 0.025973216 -0.0155679835 0.009230739 0.00048109915 -0.023376063 -0.0732977 -0.07326204
0.06209031 0.018064005 -0.02414587 -0.009029412 -0.019422447 -0.017810782 -0.014257513 -0.0071677854
0.048305213 0.055742178 0.06801954 0.00052240083 0.055258963 -0.017086813 0.016723283 0.037144635
-0.069061264 0.047549963 -0.04437295 -0.097968936 -0.04611567 -0.059774034 -0.021067549 -0.05139252
00000000: 6f58 3fbd 5ed9 8cbd 1ea6 93bc 649e e23c
00000010: d054 f8bd bc85 55bc 7f3f 6c3d a8b9 d0bd
00000020: 8268 953d 9561 b93d 3d20 8c3d 6176 123d
00000030: 6542 113d fdc6 3dbd 8b8d c4bd 9145 ed3b
00000040: 4b2f 6abd 53ca bbbd e68e 26bd 653d 4cbc
00000050: 36f1 2cbd c4c4 69bd 9a4d b9bc ee48 eeba
00000060: 840b 27bd e7aa 363c 6d8a 99bd 3080 8bbd
00000070: 11cc 513d febd 1c3d c626 d43a 83ed 2bbd
00000080: 4691 b3bd 6ff5 9ebd 1b09 f63c a53c 473d
00000090: 0dd1 f63c 6e05 afbd 1d16 563c 9dc3 22bd
000000a0: 1996 943d 42f6 1e3c a318 0f3d cd75 6a3d
000000b0: 0c54 e8bd 2ba5 953d 1e04 943d e97d 83bd
000000c0: 21c8 073d 896d 8dbd c8a2 4f3c 515f 473d
000000d0: 0a69 0bbc 1943 473d 689f 363d 4284 b73d
000000e0: 31f9 59bd 64fa 753d 6ecf 76bd c543 833b
000000f0: 00bd 9b3d 4501 8bbd 8b36 efbb 1ab0 f73c
00000100: a76c 85bd ce4d ce3d 2496 bbbd 000f 0e3d
00000110: 98db 6e3c 1760 053d 3700 6bbd bf38 a5bd
00000120: b670 23bd c83c d3bb 6c42 ccbb 0cb8 053e
00000130: ecab 69bd de3d 433d 5655 1ebd 8652 e53c
00000140: cdcf 783c 322e 28bd 433a 7b3d f596 8e3c
00000150: a8b1 993c 216a 2bbd bb18 893c dace 3a3c
00000160: f860 c43c 77d0 9fbc 26b9 553d 27c1 a93d
00000170: 3e70 a1bd d53b 4f3c 4b5b cabd 61aa 1c3d
00000180: f0ae a73d 43e3 a4bd 7ffe 763c ff82 51bd
00000190: ad95 88bc 5ef7 cabc 9094 cb3b c2d2 12bd
000001a0: 27e9 a63d a343 80bd 4c76 73bd 6fe5 a93d
000001b0: ae8b f63c 2230 d3bc 3ec7 adbc 23d5 533c
000001c0: 307d 753d 305b 72bd b0e6 bd3c f3a8 c1bd
000001d0: 8f3e b23c ad32 583d 2177 acbd e168 253d
000001e0: 4a05 c5bd 579c 4a3c 3ca7 25bd a0b5 683d
000001f0: ee67 9c3d 56e4 d4bd d9dd 47bd cd0b 0e3d
00000200: ca72 1e3d b6fe 70bd 9e7c 85bd 1755 20bc
00000210: 2323 073d f8c6 a13d bcc4 893d 1765 57bd
00000220: 9914 9bbd 83be 9d3d 84ae 2abc 7689 353c
00000230: e1ff 2bbd 01ad 4a3d d0ae b03d b108 6bbd
00000240: 49e2 81bc 52cd 43bd 84ac 94bd 9f33 bfbd
00000250: 583e 823d 6a20 a7bb 67ec 7b3c c881 773d
00000260: 3918 52bc fe6f 9d3d 1884 cfbb f667 883d
00000270: 4437 0fbc b224 4f3b 25c4 443c f575 3cbd
00000280: 888c 0f3d 4360 1cbd 917a 3cbd b8b6 fabc
00000290: a3bc 8f3d 6b3e c8bd 97ce cabc ab4e 22bb
000002a0: 3709 973d b5c0 c43d f50e 7dbd c22d cf3c
000002b0: 7b45 87bd 4cfc 893c 91ff 5dbd a455 0fbc
000002c0: 36ce 83bd 1adf 41bd 4ac6 91bd 9021 3c3d
000002d0: 020f 3cbd 8309 a63d d499 443c e632 383c
000002e0: 9739 1bbc 2042 a13d 49be b43c 8bcc 6dbd
000002f0: f3bb 863c ad7c 83bd 6aa7 393c d101 033d
00000300: 5edf 3b3b 8ae5 4cbd 5485 3c3c 9656 993c
00000310: 4fa3 943d c3cf c4bd 84e4 28bd 201a 34bc
00000320: 2b21 783d 8304 acbd b50f 603c c1de 4ebd
00000330: 5978 703d eb6b b6bd 1685 c3bc 94ba 89bd
00000340: 6378 aebd ec77 22bd 761b f3bb deb1 c03d
00000350: 1291 85bd 4f68 f1bc c100 5cbd e10e 663d
00000360: 546a a03d b6f3 223d beda d33c e5d3 8f3d
00000370: 4c3d f53c 32a8 623d 3c46 6a3d af92 97bd
00000380: a40b dc3b c8c5 d43c db10 7fbc 873c 173c
00000390: 093c fc39 287f bfbc 1b1d 96bd 690a 96bd
000003a0: 6952 7e3d f7fa 933c 8fcd c5bc 19f0 13bc
000003b0: d31b 9fbc ebe7 91bc 5898 69bc bedf eabb
000003c0: b0db 453d e951 643d d44d 8b3d baf1 083a
000003d0: 3957 623d a5f9 8bbc 44ff 883c f924 183d
000003e0: fe6f 8dbd c0c3 423d 69c0 35bd f0a3 c8bd
000003f0: c9e3 3cbd 9ed5 74bd da95 acbc f780 52bd

lstm.bias_hh_l0 f4 [512]
0.06069705 0.049093988 -0.09490855 0.05931941 -0.09946769 -0.061560567 -0.08761983 -0.029165482
-0.06130435 0.094754525 0.048005916 0.0020808806 -0.035091054 0.032885395 -0.013189358 -0.069250226
-0.083307765 -0.036784098 -0.0644764 -0.008970384 -0.034855716 0.010468057 -0.0663569 -0.06971782
-0.009259069 0.09023297 0.039773982 -0.020267192 0.009826307 0.016475813 -0.054831862 0.04800255
-0.051200442 -0.06507629 -0.035289317 -0.057788704 0.04775417 -0.035296172 0.06358615 0.056638807
-0.024940224 0.0855595 0.0014002741 -0.06736152 0.01193627 -0.024792852 -0.055618703 0.025370158
0.033712648 0.024578108 0.08592496 -0.012577215 0.08967524 0.007083837 -0.00090069184 0.05730252
-0.014696836 0.020083057 0.07596127 -0.029380884 -0.06872962 -0.011820384 0.005963043 -0.08009192
0.03866124 0.09888183 0.012581233 -0.057522785 -0.061983593 0.01717129 -0.104263745 -0.096969575
-0.09705495 0.039669804 0.05979369 0.13588943 -0.059504833 -0.09449707 -0.09685992 0.050869625
-0.06357978 0.03967542 -0.03956638 0.034703143 -0.07577741 -0.066165425 0.013255918 -0.016387565
0.075177744 -0.033477113 -0.004660101 0.073010065 -0.073846295 -0.06329126 -0.081314124 -0.0033402022
0.0018784126 -0.10195487 0.080080554 0.028791571 0.07352329 -0.07946294 -0.029985627 0.04822173
0.06661164 -0.018966742 0.05642875 0.031427022 -0.099841096 0.0114136925 -0.05915453 -0.029414522
-0.10827916 -0.015234801 0.04148801 -0.1259749 -0.0702026 -0.00051870866 -0.104566835 -0.049424943
-0.0272631 -0.051740546 0.04905108 0.054267086 -0.013996778 -0.0095264055 0.094271526 0.098990336
0.053659994 0.04072022 0.045020543 0.014766217 0.009545444 -0.029572489 0.046915676 -0.05427323
0.057938177 -0.01974734 0.08042681 -0.07494976 0.05186529 -0.047593396 -0.018917022 0.042287722
0.072913356 0.030985162 -0.12833488 -0.045534976 -0.026770279 0.09859106 0.093370244 0.07929632
-0.07885388 -0.05649402 -0.0023063745 0.075192556 -0.023947215 0.06779864 -0.015655631 -0.019091945
-0.033395525 -0.01987409 -0.003301085 0.04484926 -0.050914243 -0.019018583 -0.05153744 0.049428325
0.0038239753 -0.028330607 0.07367233 0.063361436 -0.042706985 0.109778374 -0.10052437 0.04330338
0.031122446 0.013948349 0.068870425 -0.039209437 -0.05018458 -0.049027793 0.01425931 0.020155063
0.008825205 -0.028074233 -0.011097976 0.03013837 -0.029901952 -0.08975355 0.0070235184 0.062443286
-0.07882277 0.09798017 0.03270869 -0.023478383 -0.03194943 -0.03574008 -0.052426506 -0.078300945
-0.014302642 -0.094088554 -0.071858436 -0.018936835 0.112318195 -0.074907966 -0.060306337 -0.07333081
0.054084387 0.06875458 0.08381038 0.00932197 -0.07005654 -0.05029371 -0.005002922 0.052138828
-0.083506644 0.043189507 0.0398576 -0.044330038 -0.010488527 0.013060286 0.043771755 -0.07997822
-0.08283035 -0.014161324 0.014537626 -0.0074028363 0.06388456 0.04290716 -0.040411156 0.059396617
0.028565286 -0.08209655 0.05894278 0.047164395 -0.00034941192 -0.0054077674 -0.07605758 -0.07406438
-0.09252956 0.0993784 -0.030596057 -0.10522123 0.017991414 -0.0693223 -0.13152207 -0.043647174
-0.0580907 0.08370387 -0.012969499 -0.060555138 0.027819375 0.015125924 -0.04379601 0.025042733
00000000: 789d 783d c716 493d 6a5f c2bd e9f8 723d
00000010: b7b5 cbbd ef26 7cbd 0772 b3bd 73ec eebc
00000020: 451a 7bbd a90e c23d daa1 443d 625f 083b
00000030: a3bb 0fbd d6b2 063d 2d18 58bc 10d3 8dbd
00000040: 439d aabd ecaa 16bd 340c 84bd 84f8 12bc
00000050: dec4 0ebd 3782 2b3c 20e6 87bd 37c8 8ebd
00000060: 5ab3 17bc 10cc b83d 0bea 223d 6207 a6bc
00000070: 85fe 203c 49f8 863c 6097 60bd 529e 443d
00000080: 8eb7 51bd b846 85bd 888b 10bd d9b3 6cbd
00000090: e099 433d b892 10bd 7539 823d 18fe 673d
000000a0: 714f ccbc d239 af3d 6789 b73a d6f4 89bd
000000b0: 5890 433c 611a cbbc 70d0 63bd 14d5 cf3c
000000c0: 4616 0a3d 0758 c93c 6df9 af3d aa10 4ebc
000000d0: a7a7 b73d 881f e83b 681c 6cba 0cb6 6a3d
000000e0: ffca 70bc 3985 a43c 9591 9b3d 2eb0 f0bc
000000f0: 1dc2 8cbd 49aa 41bc a165 c33b 3c07 a4bd
00000100: 405b 1e3d 8f82 ca3d 8421 4e3c 039d 6bbd
00000110: 82e2 7dbd ceaa 8c3c 3b88 d5bd fc97 c6bd
00000120: bfc4 c6bd ce7c 223d 3aea 743d 9926 0b3e
00000130: 57bb 73bd ae87 c1bd 7e5e c6bd ab5c 503d
00000140: 1e36 82bd b182 223d 5b10 22bd e224 0e3d
00000150: 3031 9bbd bd81 87bd 5a2f 593c 373f 86bc
00000160: caf6 993d 4c1f 09bd c3b3 98bb 4d86 953d
00000170: ba3c 97bd d99e 81bd 0588 a6bd 4be7 5abb
00000180: 1135 f63a b7cd d0bd 4601 a43d 4ddc eb3c
00000190: 6193 963d 77bd a2bd 6ba4 f5bc 2684 453d
000001a0: af6b 883d 2460 9bbc d521 673d 9fb9 003d
000001b0: 7d79 ccbd 7f00 3b3c 054c 72bd b9f6 f0bc
000001c0: 77c1 ddbd 639b 79bc 55ef 293d 90ff 00be
000001d0: 61c6 8fbd f3f9 07ba 2327 d6bd cf71 4abd
000001e0: dd56 dfbc e5ed 53bd c9e9 483d 2a47 5e3d
000001f0: be52 65bc a414 1cbc 6e11 c13d 72bb ca3d
00000200: 95ca 5b3d 3fca 263d 7667 383d 01ee 713c
00000210: 7e64 1c3c 0142 f2bc a72a 403d 9b4d 5ebd
00000220: 9550 6d3d 2cc5 a1bc d0b6 a43d 437f 99bd
00000230: b370 543d 4bf1 42bd dff7 9abc e435 2d3d
00000240: 9953 953d 98d4 fd3c 386a 03be e282 3abd
00000250: 584d dbbc 1cea c93d e638 bf3d 1c66 a23d
00000260: 257e a1bd 4666 67bd 8b26 17bb 8efe 993d
00000270: f32c c4bc 03da 8a3d 3d40 80bc b666 9cbc
00000280: bfc9 08bd fdce a2bc 0457 58bb dcb3 373d
00000290: 748b 50bd dccc 9bbc ec18 53bd 5b75 4a3d
000002a0: a99b 7a3b 9715 e8bc 85e1 963d a4c3 813d
000002b0: 85ed 2ebd 7cd3 e03d b9df cdbd e35e 313d
000002c0: 80f4 fe3c 9e87 643c f00b 8d3d 139a 20bd
000002d0: 598e 4dbd 5ed1 48bd e29f 693c 3b1c a53c
000002e0: 9897 103c effb e5bc 49d4 35bc bee4 f63c
000002f0: f0f4 f4bc b6d0 b7bd 8b25 e63b 88c4 7f3d
00000300: d56d a1bd d4a9 c83d 8cf9 053d bd55 c0bc
00000310: 68dd 02bd 3164 12bd 2dbd 56bd 3f5c a0bd
00000320: a155 6abc 80b1 c0bd 842a 93bd 6c21 9bbc
00000330: 1507 e63d 5969 99bd c703 77bd 772e 96bd
00000340: 9787 5d3d 34cf 8c3d c7a4 ab3d 2dbb 183c
00000350: ce79 8fbd c700 4ebd 8def a3bb 868f 553d
00000360: 8805 abbd 7be7 303d b941 233d 6a93 35bd
00000370: 12d8 2bbc cffa 553c 034a 333d 9fcb a3bd
00000380: f5a2 a9bd e604 68bc 392f 6e3c 7e93 f2bb
00000390: e8d5 823d 6bbf 2f3d 2b86 25bd de49 733d
000003a0: bf01 ea3c 3c22 a8bd fc6d 713d 742f 413d
000003b0: 4631 b7b9 a433 b1bb 14c4 9bbd 11af 97bd
000003c0: 2380 bdbd e786 cb3d 95a4 fabc 3a7e d7bd
000003d0: bb62 933c daf8 8dbd b9ad 06be 61c7 32bd
000003e0: 84f0 6dbd ef6c ab3d 067e 54bc aa08 78bd
000003f0: 75e5 e33c b9d2 773c 7263 33bd 6b26 cd3c

lstm.weight_ih_l1 f4 [512, 128]
0.04770416 0.015758807 0.12061094 -0.043801323 -0.03086051 -0.040208757 -0.022861615 0.08229741
-0.011834208 -0.02203025 -0.062259194 -0.058493014 -0.08856074 0.00871895 0.06469309 0.034002773
-0.0019521881 0.07765872 -0.023380147 0.05105195 -0.09806918 0.08143137 0.040453173 -0.06589527
0.036487155 -0.06026983 0.037462078 0.043279782 0.04664522 -0.08979437 -0.118057996 -0.08010586
0.07499589 0.077662334 0.05164297 -0.041770738 -0.026053075 -0.039393008 -0.086697936 -0.1015819
-0.09701952 0.09079143 0.0730948 -0.05397845 -0.03747166 -0.042342678 -0.022376927 0.10877313
-0.11661924 0.05165801 0.0069364808 -0.06506348 -0.047909666 0.11275997 0.08904105 -0.03148298
0.016023595 -0.06028014 -0.057838842 0.08045036 0.0017533957 0.07383377 0.008972821 -0.16734317
0.01587018 -0.067458674 0.016371276 -0.056208163 0.037071235 -0.010892698 -0.006840015 0.09485017
0.04121387 0.06801537 0.07392218 -0.049098007 -0.033232894 0.030406049 -0.013433005 -0.016064737
-0.07813518 0.007020667 0.047242135 0.060281746 -0.063613534 0.06286449 -0.110348545 0.07794963
0.03236299 0.026775409 0.031310532 -0.055006154 -0.08350158 0.0013055191 0.018873997 -0.058589764
0.078410484 -0.081549406 0.023898123 0.025565054 0.092862725 -0.0015151479 0.027693536 0.030115731
0.05446199 0.007844919 -0.11742035 0.0727383 -0.06589425 -0.10988362 0.025502417 0.054730598
0.026565524 0.053202882 -0.06968461 -0.030184332 -0.04971823 -0.09123711 0.04037113 0.058724772
0.005118743 -0.076626405 -0.03929983 -0.05166798 -0.020618604 -0.037101936 -0.124904305 0.15001024
0.027798908 0.025598444 0.053829152 -0.057591945 0.051167555 0.06953443 -0.0053119534 0.00806974
0.072200395 0.015532137 -0.07631267 0.032367557 0.040024094 -0.003305287 -0.015710797 -0.07777293
-0.016267387 0.036949173 -0.06560736 -0.0015564382 -0.041472644 -0.0965439 0.03850663 0.030459855
0.02862087 -0.025851259 -0.08840359 0.024319094 0.080688365 -0.06621132 0.04980674 -0.009261178
-0.035384625 0.0842265 -0.10326523 0.040852558 -0.03018337 0.03236624 0.09030618 0.07526581
0.056277495 -0.090113126 -0.09585935 0.11239369 -0.06854566 -0.043733943 0.09808838 0.11261451
-0.018430687 0.0416902 -0.02636328 0.080801144 -0.039342467 -0.054731965 0.05638937 -0.04836563
-0.016923781 -0.09922174 0.06968075 0.04362985 -0.065253966 -0.009384728 0.027368836 -0.0015271995
0.047864318 -0.0077330032 -0.029994711 -0.027748916 0.13088724 -0.026308058 0.07378646 -0.017728299
0.0059146434 -0.05902146 -0.07991558 0.03086083 0.11789068 -0.08760232 0.012999819 -0.03528475
-0.06897599 0.08123246 -0.12375049 -0.029072318 -0.048505913 -0.034220915 0.06219418 -0.0042119133
-0.013480451 -0.009666752 -0.015920376 -0.023764312 0.0028311089 0.051980432 0.0057580713 0.003874177
-0.00987748 0.07328472 -0.07959065 -0.05263511 -0.0798564 0.006336619 -0.00969655 0.03378013
-0.100308344 0.11700209 -0.022386191 0.0116103 0.051570524 0.06786021 -0.027376857 -0.093341276
-0.06635153 0.013081415 0.018466227 -0.12548725 -0.055741005 0.017237449 -0.07011884 -0.09202348
-0.036027063 -0.042940546 -0.10096235 0.014483021 0.0057694796 -0.017333278 0.04749097 -0.08121645
00000000: 7065 433d 9d18 813c de02 f73d 0469 33bd
00000010: 2ecf fcbc f0b1 24bd 4848 bbbc 8b8b a83d
00000020: 44e4 41bc c878 b4bc 7f03 7fbd 5f96 6fbd
00000030: 555f b5bd edd9 0e3c d07d 843d 7e46 0b3d
00000040: 90e0 ffba 890b 9f3d b987 bfbc d91b 513d
00000050: 7fd8 c8bd 7dc5 a63d 3ab2 253d 19f4 86bd
00000060: 8e73 153d 7fdd 76bd d671 193d 2446 313d
00000070: 0f0f 3f3d 1ce6 b7bd 64c8 f1bd 8b0e a4bd
00000080: 7297 993d 6e0d 9f3d 9487 533d cb17 2bbd
00000090: 426d d5bc 905a 21bd b08e b1bd 2c0a d0bd
000000a0: 2cb2 c6bd dbf0 b93d bab2 953d 8218 5dbd
000000b0: e27b 19bd 846f 2dbd d14f b7bc 72c4 de3d
000000c0: 11d6 eebd 5997 533d 6b4b e33b 0040 85bd
000000d0: ed3c 44bd b3ee e63d 275b b63d 4cf4 00bd
000000e0: ea43 833c 4fe8 76bd 6ce8 6cbd 29c3 a43d
000000f0: 32d2 e53a 2936 973d bd02 133c 025c 2bbe
00000100: 2e02 823c c627 8abd 0e1d 863c 883a 66bd
00000110: 02d8 173d 4977 32bc 3422 e0bb ce40 c23d
00000120: e0cf 283d a44b 8b3d 8364 973d fe1a 49bd
00000130: 371f 08bd 1b16 f93c 1b16 5cbc 329a 83bc
00000140: 5605 a0bd a00d e63b f880 413d fee9 763d
00000150: d047 82bd 19bf 803d 6bfe e1bd 0ea4 9f3d
00000160: 0e8f 043d 1a58 db3c 793f 003d 224e 61bd
00000170: e002 abbd f41d ab3a a49d 9a3c d2fb 6fbd
00000180: ad95 a03d 6003 a7bd ffc5 c33c ce6d d13c
00000190: d02e be3d ed97 c6ba 8edd e23c 44b5 f63c
000001a0: 8913 5f3d fa87 003c 157a f0bd d1f7 943d
000001b0: 91f3 86bd aa0a e1bd 72ea d03c 312d 603d
000001c0: f19f d93c 44eb 593d ceb6 8ebd 2245 f7bc
000001d0: 58a5 4bbd 86da babd 335c 253d 6389 703d
000001e0: 21bb a73b 4eee 9cbd dcf8 20bd cea1 53bd
000001f0: 59e8 a8bc 33f8 17bd d4cd ffbd 499c 193e
00000200: 89ba e33c d4b3 d13c f57b 5c3d 88e5 6bbd
00000210: 1295 513d 1168 8e3d e50f aebb f136 043c
00000220: cddd 933d 817a 7e3c d149 9cbd d893 043d
00000230: 4ef0 233d 849d 58bb eeb3 80bc 6a47 9fbd
00000240: 2f43 85bc 0458 173d 275d 86bd 6601 ccba
00000250: 38df 29bd cfb8 c5bd 21b9 1d3d f286 f93c
00000260: 5176 ea3c 05c6 d3bc f10c b5bd d638 c73c
00000270: f13f a53d cd99 87bd 2702 4c3d 32bc 17bc
00000280: 78ef 10bd f17e ac3d b97c d3bd 0355 273d
00000290: 1d43 f7bc 7692 043d 72f2 b83d f624 9a3d
000002a0: 3b83 663d 3b8d b8bd e851 c4bd aa2e e63d
000002b0: ab61 8cbd 5d22 33bd 90e2 c83d 70a2 e63d
000002c0: f4fb 96bc 58c3 2a3d cef7 d7bc 127b a53d
000002d0: 9125 21bd a02e 60bd 8af8 663d 0a1b 46bd
000002e0: bea3 8abc c534 cbbd c8b4 8e3d 37b5 323d
000002f0: dfa3 85bd 67c2 19bc 9c34 e03c 502c c8ba
00000300: 600d 443d 2265 fdbb 78b7 f5bc b251 e3bc
00000310: 4e07 063e ff83 d7bc 5b1d 973d f03a 91bc
00000320: a0cf c13b 7dc0 71bd c8aa a3bd dacf fc3c
00000330: ab70 f13d d868 b3bd 31fd 543c be86 10bd
00000340: 4943 8dbd 345d a63d e670 fdbd 1229 eebc
00000350: 23ae 46bd 3b2b 0cbd 53bf 7e3d 1704 8abb
00000360: 1cdd 5cbc 4c61 1ebc 736b 82bc 60ad c2bc
00000370: 208a 393b 6fe9 543d 34ae bc3b e8e5 7d3b
00000380: 27d5 21bc 4d16 963d 6c00 a3bd ea97 57bd
00000390: c18b a3bd 6aa3 cf3b 47de 1ebc 095d 0a3d
000003a0: 766e cdbd cb9e ef3d 3f63 b7bc 2139 3e3c
000003b0: 9d3b 533d 4bfa 8a3d 6e45 e0bc b629 bfbd
000003c0: 50e3 87bd 6e53 563c 7c46 973c bb7f 00be
000003d0: ae50 64bd 8d35 8d3c 779a 8fbd ce76 bcbd
000003e0: 1d91 13bd 6de2 2fbd 59c5 cebd 314a 6d3c
000003f0: e70d bd3b 85fe 8dbc e485 423d cf54 a6bd

lstm.weight_hh_l1 f4 [512, 128]
0.031038368 0.05900977 0.055598628 0.04617264 0.043924913 0.13048379 -0.08034219 -0.05701981
-0.021909872 -0.012479535 -0.009296479 0.0064142873 -0.011782785 0.0065110875 0.025617389 0.13161503
-0.047539804 -0.033471774 0.08782242 0.044582132 0.05393356 0.095374726 -0.030263275 0.00082546216
-0.06394648 0.036689278 -0.03331851 -0.023454605 0.00847896 0.04715634 0.0032598204 0.0437384
-0.05349651 -0.011365864 0.19225378 0.09663006 -0.03945714 0.036962878 -0.026852956 -0.11597248
0.12277566 -0.14733873 -0.04903551 0.061332162 0.03730323 0.0023057002 0.008214269 -0.003648269
-0.100917734 0.015846709 0.030613925 -0.07947924 -0.020330904 0.015714815 -0.030896204 0.056074698
-0.101081856 0.10729659 -0.0063416446 -0.047630217 -0.076878555 -0.09728209 -0.07641925 -0.07174264
-0.042109203 -0.048684098 0.04202764 0.018662538 0.109460555 0.024486544 0.071066335 -0.06354492
-0.006610168 -0.03571194 -0.0012738805 -0.03797607 -0.014265093 0.02728142 -0.10766501 0.10703249
0.057998803 -0.042743616 -0.060289454 0.076062836 0.026724277 -0.03816081 0.053865254 -0.054924596
-0.025884116 0.017932627 -0.10384939 -0.07501764 -0.06014683 0.0865099 0.016007818 -0.0769712
0.051275954 -0.12786755 0.07271308 -0.007936052 0.1182517 -0.08338449 -0.04493955 0.08783268
0.03212865 0.04508321 0.04352902 0.05313552 0.004595271 0.011104091 0.0247017 -0.072503865
-0.0074431202 -0.020116119 -0.0012386655 -0.022990724 -0.022356221 0.046196643 0.019717019 -0.071560346
0.0051645185 -0.060834736 -0.036650516 0.009064426 -0.088241726 0.044593967 -0.04150944 0.051262926
0.021518877 -0.015052252 -0.068382226 -0.05599949 -0.08904415 0.047561783 0.013315963 -0.037027556
-0.023876514 0.06632172 -0.08504729 -0.07095563 0.031921953 0.06496755 0.01366181 0.051775295
0.072547264 0.020313554 -0.056869015 0.006592837 -0.0023139159 0.15929566 -0.013127301 0.08203427
-0.023511589 -0.062694736 -0.033639584 0.02944669 0.069013454 0.0028484508 0.039783992 -0.07084022
-0.020249996 0.042921104 -0.064066425 -0.003867066 -0.06353094 0.039329544 0.045679357 -0.07483615
0.04009135 -0.085007705 -0.025437478 0.087280914 -0.013778973 0.049333375 0.0020100235 0.066762164
0.04085247 -0.016507024 -0.06824513 0.043245073 -0.08817617 -0.05468972 -0.008632006 -0.0401165
0.054832276 -0.03227091 0.03397458 -0.03141108 0.0038110092 0.019098971 -0.05305267 8.195938e-05
-0.057478882 0.027422745 0.06540515 -0.020933978 0.04115939 -0.025155062 -0.06376343 -0.023697088
-0.07206771 -0.012855937 -0.075627394 -0.08201809 -0.07653353 0.05035488 -0.044802886 -0.09006773
-0.0061406284 -0.10531013 -0.037487555 0.0716967 -0.004238945 0.047552783 -0.057256367 -0.01286387
-0.08453618 0.065962635 0.05682082 -0.07966512 0.034716003 -0.04209891 0.006376679 0.037398744
0.031326782 -0.01798609 -0.06711885 0.02755313 -0.062864095 0.0054245694 0.01135888 -0.054624308
0.0032279307 -0.027599338 0.060386475 -0.032212924 -0.07289133 0.021190528 -0.012627432 -0.07488824
-0.091634035 0.03405684 -0.07422684 0.110634305 -0.07008316 -0.01945694 -0.124384694 -0.046063922
0.023117455 -0.052977175 0.023943761 0.08320985 -0.049060326 0.06324849 -0.03928797 0.010891774
00000000: 2d44 fe3c 3bb4 713d 63bb 633d 861f 3d3d
00000010: 9cea 333d 8b9d 053e 728a a4bd 9b8d 69bd
00000020: 557c b3bc f776 4cbc 4250 18bc f12e d23b
00000030: 950c 41bc f65a d53b 8fdb d13c 17c6 063e
00000040: 19b9 42bd b319 09bd 3edc b33d c19b 363d
00000050: 70e9 5c3d d353 c33d b0ea f7bc d463 583a
00000060: 5ff6 82bd 7f47 163d fd78 08bd df23 c0bc
00000070: 56eb 0a3c 0227 413d b6a2 553b 0927 333d
00000080: 281f 5bbd e437 3abc 2dde 443e fbe5 c53d
00000090: cf9d 21bd 6366 173d bbfa dbbc fb82 edbd
000000a0: ce71 fb3d f7df 16be 75d9 48bd 6f37 7b3d
000000b0: 46cb 183d 3b1b 173b 2495 063c cc17 6fbb
000000c0: f5ad cebd f5d0 813c 0eca fa3c 03c6 a2bd
000000d0: ff8c a6bc 5bbc 803c 091a fdbc 95ae 653d
000000e0: 0104 cfbd 51be db3d 92cd cfbb e717 43bd
000000f0: 8172 9dbd d53b c7bd b281 9cbd ceed 92bd
00000100: b37a 2cbd fa68 47bd 2d25 2c3d 2ee2 983c
00000110: db2c e03d 0198 c83c 3a8b 913d d723 82bd
00000120: 1c9a d8bb af46 12bd 56f8 a6ba cc8c 1bbd
00000130: 23b8 69bc 497d df3c 797f dcbd da33 db3d
00000140: 2790 6d3d ee13 2fbd 13f2 76bd d5c6 9b3d
00000150: dfec da3c 824e 1cbd d0a1 5c3d 9df8 60bd
00000160: ed0a d4bc 72e7 923c fdae d4bd d9a2 99bd
00000170: 865c 76bd 1a2c b13d d422 833c 14a3 9dbd
00000180: bc06 523d b6ef 02be 98ea 943d 3706 02bc
00000190: f32d f23d 7dc5 aabd 8912 38bd 9fe1 b33d
000001a0: 5599 033d 2ca9 383d 7c4b 323d a2a4 593d
000001b0: ed93 963b efed 353c 385b ca3c e87c 94bd
000001c0: 6be5 f3bb 8fca a4bc b85a a2ba 0b57 bcbc
000001d0: 6524 b7bc b138 3d3d 9685 a13c 3b8e 92bd
000001e0: 1f3b a93b d82d 79bd da1e 16bd f582 143c
000001f0: 14b8 b4bd 2aa8 363d cd05 2abd 13f9 513d
00000200: 5b48 b03c b99d 76bc fb0b 8cbd b95f 65bd
00000210: c85c b6bd 25d0 423d 322b 5a3c 35aa 17bd
00000220: ae98 c3bc afd3 873d 462d aebd 2f51 91bd
00000230: 98c0 023d b50d 853d c9d5 5f3c 5512 543d
00000240: a993 943d 9c68 a63c 7cef 68bd ba08 d83b
00000250: 11a5 17bb 671e 233e e413 57bc 9501 a83d
00000260: 609b c0bc 1966 80bd a9c9 09bd 2f3a f13c
00000270: ed56 8d3d 13ad 3a3b 8af4 223d ad14 91bd
00000280: 52e3 a5bc 0ace 2f3d 4235 83bd 9a6e 7dbb
00000290: 821c 82bd 0418 213d 471a 3b3d b243 99bd
000002a0: d436 243d 8518 aebd 4262 d0bc 56c0 b23d
000002b0: 34c1 61bc cb11 4a3d 99ba 033b 9aba 883d
000002c0: eb54 273d bd39 87bc 1ac4 8bbd bf21 313d
000002d0: b595 b4bd 5402 60bd 426d 0dbc 3351 24bd
000002e0: cf97 603d 802e 04bd ee28 0b3d e8a8 00bd
000002f0: 20c2 793b 7275 9c3c c24d 59bd 9be1 ab38
00000300: fa6e 6bbd aaa5 e03c 23f3 853d bc7d abbc
00000310: c096 283d fd11 cebc 6796 82bd 6520 c2bc
00000320: 3c98 93bd b5a1 52bc 89e2 9abd 1af9 a7bd
00000330: 9dbd 9cbd eb40 4e3d 3b83 37bd 6e75 b8bd
00000340: 5337 c9bb d6ac d7bd 8d8c 19bd b8d5 923d
00000350: d9e6 8abb b5c6 423d a785 6abd fbc2 52bc
00000360: 4e21 adbd 6b17 873d f3bc 683d 7727 a3bd
00000370: 5e32 0e3d e86f 2cbd 76f3 d03b 6d2f 193d
00000380: 8350 003d 9157 93bc 9c75 89bd 1ab7 e13c
00000390: e4be 80bd 96c0 b13b 991a 3a3c bdbd 5fbd
000003a0: b18b 533b 0218 e2bc cf57 773d b3f1 03bd
000003b0: 0d48 95bd c297 ad3c 4ae3 4ebc 015f 99bd
000003c0: a0aa bbbd 2f7f 0b3d 3e04 98bd 3d94 e23d
000003d0: c387 8fbd 2964 9fbc 67bd febd 86ad 3cbd
000003e0: d160 bd3c 98fe 58bd b525 c43c ed69 aa3d
000003f0: 7bf3 48bd 6d88 813d 6cec 20bd 6973 323c

lstm.bias_ih_l1 f4 [512]
0.0372261 -0.040421076 0.09146385 -0.019321533 0.0887777 -0.012544692 -0.017443292 -0.03848474
-0.009900769 0.031974103 -0.0051867184 0.016660165 0.04123267 0.04679901 -0.05002646 -0.095235415
-0.035837263 0.017191099 0.0036841023 0.16234319 0.10381063 0.0904921 0.13609925 0.047053013
-0.05956197 0.076453075 -0.005849681 0.09747236 -0.082321055 0.10926649 0.040506948 0.004459142
0.047831293 0.053488165 -0.008205111 0.018931873 -0.008301755 -0.08305095 0.07455497 0.07230207
-0.04240933 -0.021309106 0.033264913 0.045164462 0.070106044 -0.029942669 -0.020624163 0.06484154
-0.116562314 0.026425902 -0.046085767 0.08774382 -0.054273047 0.14446025 -0.017670074 0.045402903
0.013304858 -0.040727194 0.0054692496 0.06277725 0.024488747 -0.022485167 -0.02827182 0.06594526
0.073595434 0.04332053 0.028267054 0.065085515 0.048285425 0.079399474 0.04221847 0.10762188
0.007202358 0.055754837 0.02651917 0.00017925163 0.049004465 0.042026915 0.07688434 0.1532431
-0.06334268 0.03249633 0.12922384 -0.06943295 0.04136479 0.020162007 0.081268355 -0.033350166
0.03962128 -0.025288917 0.040031012 0.041016866 -0.09295224 -0.04423376 -0.039386626 0.123514056
-0.058636013 0.096243896 -0.05230888 -0.06161933 0.053815864 0.08965335 -0.05625526 -0.09538819
-0.012883147 0.04537556 -0.03082797 0.04195931 0.10042722 0.07788584 0.06270554 -0.031871308
0.076670475 -0.056229856 0.07839369 0.029480407 0.015159109 -0.023029756 -0.045634795 0.05093029
0.100560784 -0.03031357 -0.10680618 0.042180326 0.018377231 0.092396505 0.113430135 0.020871677
-0.02092878 -0.0030389493 -0.055554435 0.017839387 0.016255645 -0.08989824 0.09698938 -0.0054793125
-0.047288034 -0.0043734205 -0.0028527346 0.05911576 -0.033111855 0.097481534 0.07935775 -0.06538916
-0.08525814 -0.02587294 0.1200609 -0.11249969 -0.0049626636 0.077808335 -0.017375773 -0.068908855
-0.041092794 0.061438844 -0.0044259103 0.054873183 -0.08918984 2.478464e-05 -0.04361788 0.056493845
-0.09762048 0.07884886 -0.053994827 -0.025534468 0.11580263 -0.10235023 0.14612976 -0.036428634
0.0413306 0.15424038 0.05619669 0.011238777 0.012964732 0.03512806 0.041241676 0.05970714
-0.007435927 0.039075714 0.034526363 0.021785622 -0.025636017 0.07013141 0.018422682 0.014409529
-0.14712226 0.030092277 0.07682464 0.03442766 0.04134785 -0.05071522 -0.003205998 -0.05307502
-0.02012186 -0.07925641 0.00090522313 0.011017659 -0.02071041 0.041181706 0.084433034 -0.07178689
-0.023702879 0.01763897 0.027616246 -0.00922559 -0.0071135066 -0.0018026212 -0.068288915 0.06211613
0.023585504 0.047215432 -0.028639838 -0.07035493 -0.062194858 0.01676532 -0.056137957 -0.006215083
0.0070051025 0.042462844 0.11509645 0.062011454 0.0014495011 0.070773885 0.106690146 -0.019005595
-0.010959247 -0.009842854 -0.03416796 0.09643076 -0.0147034945 0.07361585 0.0027339752 -0.07719049
0.06289052 0.04451476 0.03043405 0.052156217 -0.011035076 -0.090694815 0.037328787 0.0015262171
-0.03374766 0.0359604 -0.066069625 -0.05927889 0.036401853 0.0043362775 -0.081649676 -0.037715703
-0.09151218 0.08130766 -0.019817699 -0.0093160765 -0.10136404 0.0127323875 -0.03773935 0.0032835293
00000000: 657a 183d 9290 25bd 6651 bb3d 3148 9ebc
00000010: 15d1 b53d 4088 4dbc 3ce5 8ebc 2da2 1dbd
00000020: d636 22bc 47f7 023d 59f5 a9bb e67a 883c
00000030: 97e3 283d 52b0 3f3d 8ce8 4cbd c90a c3bd
00000040: 18ca 12bd 59d4 8c3c fb70 713b 4b3d 263e
00000050: ab9a d43d ec53 b93d 9a5d 0b3e a9ba 403d
00000060: 41f7 73bd 6e93 9c3d aeae bfbb 979f c73d
00000070: f197 a8bd 1cc7 df3d 9dea 253d ff1d 923b
00000080: bfea 433d 6816 5b3d bb6e 06bc 0417 9b3c
00000090: 1604 08bc 9e16 aabd 47b0 983d 1c13 943d
000000a0: 68b5 2dbd 6f90 aebc ca40 083d 5ffe 383d
000000b0: c293 8f3d 544a f5bc 01f4 a8bc a4cb 843d
000000c0: 39b8 eebd 227b d83c 6ec4 3cbd 08b3 b33d
000000d0: 6a4d 5ebd 63ed 133e d5c0 90bc 65f8 393d
000000e0: 9efc 593c 8fd1 26bd 6437 b33b 5c91 803d
000000f0: a09c c83c d032 b8bc 4e9a e7bc 4f0e 873d
00000100: 34b9 963d de70 313d 4f90 e73c 8e4b 853d
00000110: f0c6 453d 319c a23d 46ed 2c3d dc68 dc3d
00000120: c201 ec3b 2f5f 643d bb3e d93c 7ef5 3b39
00000130: e8b8 483d 6a24 2c3d 8975 9d3d c2eb 1c3e
00000140: cfb9 81bd df1a 053d 4153 043e dd32 8ebd
00000150: 206e 293d cb2a a53c 0670 a63d 2f9a 08bd
00000160: ec49 223d b42a cfbc 8ff7 233d 4d01 283d
00000170: be5d bebd 762e 35bd df53 21bd f0f4 fc3d
00000180: 512c 70bd 851b c53d d641 56bd 8d64 7cbd
00000190: 066e 5c3d 2d9c b73d ea6b 66bd e25a c3bd
000001a0: d613 53bc b9db 393d f08a fcbc 87dd 2b3d
000001b0: c9ac cd3d 9c82 9f3d c36b 803d 7d8b 02bd
000001c0: 6905 9d3d 4751 66bd df8c a03d e580 f13c
000001d0: e95d 783c e6a8 bcbc 8deb 3abd 489c 503d
000001e0: d0f2 cd3d 2a54 f8bc 33bd dabd 47c5 2c3d
000001f0: d98b 963c 613a bd3d 0f4e e83d 14fb aa3c
00000200: d572 abbc 1c29 47bb 0c8d 63bd e823 923c
00000210: 8f2a 853c 921c b8bd 5ea2 c63d ce8b b3bb
00000220: 19b1 41bd e94e 8fbb f2f4 3abb 5e23 723d
00000230: 4ca0 07bd 66a4 c73d 5186 a23d c0ea 85bd
00000240: d29b aebd 7df3 d3bc 7de2 f53d 3d66 e6bd
00000250: d79d a2bb fa59 9f3d a357 8ebc 1620 8dbd
00000260: eb50 28bd 4ca7 7b3d 3a07 91bb b4c2 603d
00000270: 2aa9 b6bd 9ce8 cf37 aaa8 32bd 1766 673d
00000280: 3fed c7bd 837b a13d ae29 5dbd a92d d1bc
00000290: ee29 ed3d ff9c d1bd 0aa3 153e 3136 15bd
000002a0: 464a 293d 31f1 1d3e 802e 663d d922 383c
000002b0: 076a 543c 71e2 0f3d 08ed 283d 798f 743d
000002c0: 14a9 f3bb db0d 203d 846b 0d3d c377 b23c
000002d0: a002 d2bc 0fa1 8f3d 2aeb 963c f215 6c3c
000002e0: 38a7 16be 1484 f63c 3d56 9d3d 0504 0d3d
000002f0: 5d5c 293d c3ba 4fbd b91b 52bb 3165 59bd
00000300: 99d6 a4bc 2f51 a2bd 7f4c 6d3a 6983 343c
00000310: e1a8 a9bc 26ae 283d 3aeb ac3d 0105 93bd
00000320: 8a2c c2bc 9a7f 903c 773b e23c ee26 17bc
00000330: 6b18 e9bb ee45 ecba 0fdb 8bbd 7c6d 7e3d
00000340: 6336 c13c f864 413d 189e eabc 3f16 90bd
00000350: 09c0 7ebd 6d57 893c eaf0 65bd e5a7 cbbb
00000360: 0f8b e53b 85ed 2d3d b0b7 eb3d b9ff 7d3d
00000370: 30fd bd3a e6f1 903d 5d80 da3d 9fb1 9bbc
00000380: 6a8e 33bc ec43 21bc b4f3 0bbd 7e7d c53d
00000390: ede6 70bc e8c3 963d 7e2c 333b 0c16 9ebd
000003a0: bfcc 803d 1c55 363d d450 f93c c2a1 553d
000003b0: 77cc 34bc 34be b9bd 12e6 183d 590b c83a
000003c0: fd3a 0abd 364b 133d 834f 87bd 6cce 72bd
000003d0: 1c1a 153d 5517 8e3b f237 a7bd c87b 1abd
000003e0: bd6a bbbd a184 a63d ba58 a2bc 75a2 18bc
000003f0: f397 cfbd 819b 503c 9494 1abd 7b30 573b
